w1.npy (npy, 501888 bytes, 1 tensors)

array f4 [784, 160]
00000000: fc0c a33a c49e 1e39 5925 8fba 7ecf 77ba
00000010: 01e1 1fbb 1290 ddba 2f45 4db8 b0c4 903a
00000020: 3256 f43a 9e04 16ba 2743 0a3b 5516 293a
00000030: ce82 48ba d1d7 ac39 6e9b 5839 eb77 abba
00000040: 3b2f 273b 0445 33bb 2383 2ab8 5437 763a
00000050: 62bb 023b 3bff 033b 826f 273b 1fb8 1d3b
00000060: 4734 733a fa88 29ba f989 763a d752 08bb
00000070: e5c6 80ba 8bc1 4a3a abeb 73ba 52c2 7cba
00000080: 4f22 48ba 29e9 85ba 27ad 99ba e870 16bb
00000090: 67e8 00bb 6a0d f4b9 124d 073a 2555 f13a
000000a0: fd0d a63a 4635 1c3a cca1 e93a 5387 793a
000000b0: 6704 7e3a 7c0b d63a f904 0ebb 1d40 3e3a
000000c0: 1fd3 223b 0eb0 343a 41b2 4a39 10ee 7cb8
000000d0: 9ca9 24bb 9b73 c9ba 88a9 0cbb cfb4 6f3a
000000e0: 3aad 9a39 dbf5 ff3a b6d0 de39 e59e e1ba
000000f0: 966f 973a 6074 ccb8 c2c3 103b d123 e33a
00000100: d721 08bb 724c 273b 4843 22bb d4b0 f8ba
00000110: 8058 84b8 dbf4 56ba fdc3 7bb9 ea7c 803a
00000120: 7b6c 22bb 5dd9 cdb9 bfb8 8b3a 32c7 e33a
00000130: 8de1 01bb 4dd1 733a fd10 1cbb eb00 f8b9
00000140: bb84 23bb 75a6 1d3b 1909 023b c69c efba
00000150: d507 cbb9 e430 0abb 6d80 2b3b 63d1 073b
00000160: 5f19 33bb 7416 8139 47d2 34bb 66d7 15ba
00000170: 2943 353a b0e1 1a39 2faf a63a 72db 8139
00000180: b204 953a 1d90 2e3b c0b7 323b d7b6 4e39
00000190: e81f f93a d758 bb3a 926a 533a cef7 763a
000001a0: 552f 6338 2680 27bb 0431 11bb 5f44 2bbb
000001b0: 7bcd 31bb ae57 023b 1c0b 0a3b 1021 fc3a
000001c0: 066d 3b3a 6d33 5b39 2676 97ba b70f eaba
000001d0: b856 afba 5bf3 78ba 232d 333a 6631 10bb
000001e0: 5d3b bfba ffe9 9a39 10cb 8cba 2afa d53a
000001f0: c7e0 383a 2bd9 513a 6f9d 26bb 4f46 95b9
00000200: 2505 38bb 4f05 ca3a 172c e43a 8185 faba
00000210: dc42 a6ba 9a57 253b 7cca e2ba 7038 ceb9
00000220: addf ea3a 2880 11bb c7df f8ba cd98 8cb9
00000230: 689d cd3a a31d ab3a eac9 bc37 c06a 2e3b
00000240: cb09 413a 5f55 113b 321f 203b 127d 113a
00000250: 577d f03a b9d2 f8b9 d8c1 cdba b1ba 23bb
00000260: 4914 2cbb b80d 43ba b204 9bb9 5ced 2e3a
00000270: 47d4 faba 3dba 99b9 c4bf c539 615c 2d3b
00000280: dad8 0cbb 45c8 193b be71 10bb 282c e4ba
00000290: ebef 0a3b 2db9 5838 3605 b53a a417 983a
000002a0: ef7a 32bb 3159 84b9 0f48 7cba 9c89 3cb9
000002b0: addd f1ba 765d 02bb 37f6 113b 4391 273b
000002c0: 190e 81ba b999 84b8 ce5f 1dbb e451 c23a
000002d0: e357 9fba dd89 e33a 5198 343b 2d89 3f3a
000002e0: 3419 9e39 60a2 36ba 5692 7aba 541c 0c3b
000002f0: 0e62 8fba 3f92 563a 2e52 b63a f961 2fba
00000300: 18ab e13a 84b7 be3a 415d 36bb 76b9 d2ba
00000310: eefe 98ba 7c11 dd39 ca14 e2b9 b1d4 62b9
00000320: 6cca feba fd6b 9c3a 279d 26bb 4ec6 983a
00000330: 27fd deba 1fda 4139 51c1 02bb 4882 a23a
00000340: 5892 173b 6f2e 27bb 9505 10bb 9f00 1d3b
00000350: 268d 0f3b a8fc 343a 85d3 193b 8e70 9c3a
00000360: f322 a1ba 1c72 92ba feed fcba f12a 263b
00000370: 2b70 a73a c362 0cbb ecb5 c0ba ddbd ba3a
00000380: fb59 21bb 8fd3 14bb 07e6 caba 7d04 db38
00000390: d1ef dfb9 9360 f43a e769 a13a c9d9 b7ba
000003a0: 1796 b1ba 32e8 283b 8f88 333b 82d3 1a3a
000003b0: 9267 283b ae13 21bb 724e 323a 9601 1c39
000003c0: ed0b 9bba 4053 c139 8db4 47ba 2490 243a
000003d0: b62e 973a 413d 563a 10af 8bba bf83 fe3a
000003e0: 5186 86b8 97c9 eaba ed39 98ba c96a 87ba
000003f0: e358 37bb 1438 2dbb 1d2c 64ba 4b19 a7ba
0.0012439783 0.00015127199 -0.0010921165 -0.0009453221 -0.0024395587 -0.0016903898 -4.894024e-05 0.0011044946
0.0018641411 -0.0005722734 0.0021097155 0.0006450166 -0.0007648886 0.00032967192 0.00020657267 -0.0013082003
0.002551033 -0.002735437 -4.065329e-05 0.00093924 0.0019948115 0.0020141143 0.0025548642 0.0024066044
0.0009277504 -0.00064672495 0.0009404715 -0.002080133 -0.00098249 0.00077345286 -0.00093048316 -0.0009641993
-0.0007634507 -0.0010216582 -0.0011724577 -0.002295548 -0.0019669773 -0.000465493 0.00051613257 0.0018412216
0.0012668964 0.0005958866 0.0017824708 0.0009518761 0.0009689987 0.0016330327 -0.0021670444 0.00072574784
0.0024845076 0.0006892689 0.00019330626 -6.0303195e-05 -0.002512551 -0.0015369536 -0.0021463353 0.0009144069
0.00029502233 0.0019528227 0.0004249864 -0.0017213492 0.0011553641 -9.7491546e-05 0.0022089337 0.00173294
-0.0020772123 0.0025527743 -0.002475934 -0.0018973597 -6.310735e-05 -0.00081999385 -0.00024010237 0.0009802852
-0.0024783898 -0.00039262595 0.0010659917 0.001737809 -0.0019818277 0.00093009026 -0.0023813837 -0.0004730293
-0.002495094 0.0024055515 0.0019841848 -0.0018280975 -0.00038725013 -0.002108627 0.0026169077 0.002072417
-0.0027328355 0.00024621526 -0.0027591155 -0.0005715996 0.00069146097 0.0001477066 0.0012717004 0.00024768297
0.0011369197 0.0026636191 0.0027270168 0.00019713804 0.0019006701 0.0014293444 0.00080648914 0.0009421081
5.41651e-05 -0.002555856 -0.002215446 -0.0026133282 -0.0027130533 0.0019888687 0.002106375 0.0019235928
0.00071497296 0.00020904625 -0.0011555597 -0.0017857467 -0.0013377285 -0.0009496712 0.0006835034 -0.00220021
-0.0014589835 0.0002954751 -0.001074167 0.0016325165 0.00070525374 0.0008005078 -0.0025423428 -0.0002847188
-0.0028079238 0.0015412959 0.0017408159 -0.0019113274 -0.001268472 0.0025229217 -0.0017302777 -0.0003933343
0.0017919444 -0.0022201631 -0.0018987589 -0.00026816726 0.001568717 0.0013055097 2.250537e-05 0.002661392
0.0007363825 0.002217613 0.0024432656 0.0005549948 0.0018347901 -0.00047459247 -0.0015698029 -0.0024983103
-0.0026257208 -0.0007440704 -0.00029567402 0.00066729425 -0.001913675 -0.00029321192 0.00037717645 0.0026452767
-0.0021491558 0.0023465317 -0.0022040452 -0.0017408179 0.002120013 5.167087e-05 0.0013810757 0.0011603725
-0.0027233919 -0.00025243455 -0.00096237747 -0.0001798034 -0.0018452905 -0.0019892133 0.0022272 0.002556876
-0.000984612 -6.3228836e-05 -0.0024013403 0.0014825431 -0.001215693 0.0017359812 0.0027556608 0.00073065126
0.00030154886 -0.0006966945 -0.0009558549 0.002137919 -0.0010939257 0.00081852445 0.001390999 -0.0006690319
0.0017217128 0.0014550542 -0.002782658 -0.0016077 -0.0011672655 0.00042165432 -0.00043121568 -0.00021632273
-0.0019438989 0.0011934038 -0.002542326 0.0011655779 -0.0017012701 0.00018487171 -0.0019951651 0.0012398446
0.0023128 -0.0025509854 -0.0021975983 0.002395667 0.00219042 0.0006904104 0.0023472023 0.0011935399
-0.0012293741 -0.0011172923 -0.0019297001 0.0025355185 0.0012774518 -0.0021421171 -0.0014702654 0.0014247257
-0.0024620283 -0.0022709107 -0.001547993 0.0001044357 -0.00042712552 0.0018644504 0.0012314887 -0.0014026697
-0.0013548759 0.0025773165 0.0027394628 0.0005906151 0.0025696498 -0.002457838 0.00068018504 0.0001487791
-0.0011829116 0.00036873855 -0.0007618152 0.0006277582 0.0011534307 0.00081725797 -0.0010657031 0.0019417926
-6.414636e-05 -0.0017912862 -0.0011613943 -0.0010331507 -0.0027976565 -0.002643113 -0.0008704083 -0.0012748627
