w1.npy (npy, 401536 bytes, 1 tensors)

array f4 [784, 128]
0.00060379866 0.0014149724 0.00088599016 0.001727 -0.0029715323 0.0012009502 0.002610072 0.0018914384
0.0006645515 0.0014567052 0.00014951137 -0.00013560307 0.0025694696 -0.0025424312 0.00022601787 -0.002709924
0.0014945759 -0.0015547769 -0.0011033085 0.00076010043 0.0011366548 0.0013099406 -0.0010132652 0.00038068678
-0.002167506 -0.0021823088 0.0015728264 0.00082185736 0.002382038 0.0006246528 -0.0017334406 0.001003443
0.0029190418 0.0016236296 0.0018170523 0.0004088817 -0.0005163092 0.00089473266 -0.0027532498 -0.0006688657
-0.0020022355 -0.00079796003 0.0011990177 -0.00039213142 0.00031619 0.0008761353 -0.0014121572 0.0010249891
0.002407451 0.0027484202 0.0030728998 0.0021603536 0.001550309 -0.002451548 -0.0026807517 0.0013915502
0.001785645 -8.309773e-05 0.0030430923 0.0025239566 -0.00044424494 -0.0027285786 -0.003064498 0.0018180889
-0.0029083504 -0.00011312533 -0.001970423 -0.0031498955 0.00055662304 -0.0025123393 -0.0023186933 -0.00025326246
-0.0018334835 -0.0017972118 -0.0013486675 0.0019148601 -0.0018844182 -0.0011304046 -0.00087897055 -0.0028225768
-0.0028060982 -5.6802306e-05 -0.0025220425 -0.0006746364 0.0002533616 -0.002757423 -0.0014525482 0.0012717337
-0.0009700955 0.0016009547 -0.00021222896 -0.0020258473 -0.0024983555 0.0014074683 0.0024097797 -0.0002531595
-0.0001347687 -0.0031258564 -0.00025370612 0.0005254267 0.0025796893 0.0021024323 0.002189535 -0.001366076
0.0006907463 0.0010626033 -0.001160637 0.0011928551 -0.0004090539 0.0006571241 -0.00056686404 0.0021021357
-0.0015042609 0.00042773152 -0.0023002748 0.0016895407 -0.0014960917 -0.0015196792 -0.0012804767 0.0023531276
3.256953e-05 -0.00080660486 0.00018426466 0.0013933547 -0.0027936196 0.0007699225 0.00069346715 -0.0023132411
-6.129616e-05 0.0020096435 1.9804887e-05 -0.0010163205 0.0006867384 -0.0012608796 -0.001274979 -0.00057044916
0.0031383887 -0.0023687705 0.0030222244 -0.0003872524 -0.0001839781 -0.0016002774 0.0027308268 -0.0030157585
-0.0009326996 -0.0024229675 -0.000674206 0.0030612682 0.0018834735 -0.0007414554 -0.0025899673 0.0007497296
-0.0017120411 0.00071297796 0.0012797912 -0.0031455664 0.001271706 0.0025288907 -0.0028035326 0.0025725167
-0.00018688034 -4.1882406e-05 -0.0027559332 -0.0017650959 -0.0026436807 0.0027799413 0.002245674 -0.0007925391
-0.0017195627 0.0029011918 0.00272467 0.00228413 0.0009817646 -0.00018052108 0.00038317795 -0.0014327555
0.00034333902 0.001014184 0.0011169598 0.0012628612 0.0026228784 -0.0016037088 -0.0013193197 -0.0012573549
-0.0031336604 -0.002899803 0.003006873 -0.0027290236 -0.00045353966 0.00048405293 -0.0008033452 0.001351624
0.0014283992 -0.0022949923 -0.002281249 0.00045076682 0.0027494894 0.0011294651 0.0010397724 -0.00031786354
-0.0026914808 -0.0031428286 -0.0027332539 0.00077673723 0.0013902064 0.0020048483 -0.0024095548 0.0024066237
0.001684146 -0.0002173744 0.0013077309 -0.0004433348 -0.00234611 0.00262949 -0.0030075812 0.0025415062
0.0024493546 0.0030969244 -0.00044096546 -0.0020509618 -0.0010388208 -0.0005589412 0.0026110616 0.0005354176
-0.00062283245 -0.0014365287 -0.0004996043 0.0016093416 -0.0003603827 0.00061612256 -0.0029079667 -0.00030908152
-0.0019781354 0.00069721823 0.0004100318 -0.0028118535 0.0024568154 0.0003258103 -0.0020867537 -0.0020771455
-0.0012858007 -0.00030259354 -0.0003832307 0.0024162913 0.0011425341 -0.0018180747 -0.0018199205 -0.0031371631
0.0030008957 0.0030163783 0.0030473336 0.0016586782 0.00032558353 -0.00093668397 0.002486936 0.0009152644
00000000: 3e48 1e3a 9876 b93a cb41 683a 815c e23a
00000010: 0abe 42bb 3469 9d3a be0d 2b3b 24ea f73a
00000020: 4c35 2e3a eaee be3a 27c6 1c39 ac30 0eb9
00000030: 8c64 283b eb9e 26bb 36ff 6c39 fb98 31bb
00000040: a5e5 c33a a8c9 cbba e49c 90ba 7a41 473a
00000050: cefb 943a 50b2 ab3a 8acf 84ba ea96 c739
00000060: b70c 0ebb 1105 0fbb 4c27 ce3a ea71 573a
00000070: f71b 1c3b bdbf 233a 9d34 e3ba f685 833a
00000080: 654d 3f3b f8cf d43a 282a ee3a 2c5f d639
00000090: ed58 07ba 7e8c 6a3a de6f 34bb d156 2fba
000000a0: f037 03bb 312e 51ba 5c28 9d3a fd96 cdb9
000000b0: 4ec6 a539 72ac 653a 2218 b9ba ed58 863a
000000c0: 53c6 1d3b d71e 343b b462 493b b894 0d3b
000000d0: bd33 cb3a 26aa 20bb 8daf 2fbb ad64 b63a
000000e0: 4e0c ea3a c144 aeb8 9e6e 473b f768 253b
000000f0: 8ce9 e8b9 f4d1 32bb bfd5 48bb f14c ee3a
00000100: 069a 3ebb b33d edb8 3622 01bb 7a6e 4ebb
00000110: 57ea 113a 0fa6 24bb 38f5 17bb 50c8 84b9
00000120: 7f51 f0ba 6c90 ebba c6c5 b0ba 0bfc fa3a
00000130: 95fe f6ba 162a 94ba b76a 66ba fbfa 38bb
00000140: 84e6 37bb 033f 6eb8 da48 25bb 15da 30ba
00000150: 9ed5 8439 e2b5 34bb 6e63 beba 4db0 a63a
00000160: 024e 7eba 20d7 d13a c789 5eb9 14c4 04bb
00000170: 73bb 23bb cd7a b83a 65ed 1d3b 7eba 84b9
00000180: b350 0db9 2bdb 4cbb dc03 85b9 cabc 093a
00000190: 0110 293b f6c8 093b 4d7e 0f3b e70d b3ba
000001a0: 3313 353a 0d47 8b3a 8420 98ba 9359 9c3a
000001b0: 4976 d6b9 da42 2c3a 9a99 14ba fcc3 093b
000001c0: 9f2a c5ba 2741 e039 35c0 16bb 9473 dd3a
000001d0: 8218 c4ba f92f c7ba abd5 a7ba ee36 1a3b
000001e0: 449b 0838 5672 53ba 2b37 4139 3aa1 b63a
000001f0: 2915 37bb a0d4 493a cbc9 353a bf99 17bb
00000200: 208c 80b8 39b4 033b ac22 a637 0f36 85ba
00000210: 3c06 343a 1944 a5ba 321d a7ba 328a 15ba
00000220: 6dad 4d3b 603d 1bbb 8310 463b 2308 cbb9
00000230: 3fea 40b9 66c0 d1ba acf7 323b 08a4 45bb
00000240: 6980 74ba a6ca 1ebb 33bd 30ba 8f9f 483b
00000250: e2de f63a 3b5e 42ba 71bc 29bb 8089 443a
00000260: 9166 e0ba 24e7 3a3a abbe a73a d925 4ebb
00000270: 5faf a63a bfbb 253b 79bb 37bb ab97 283b
00000280: 4ff5 43b9 e4aa 2fb8 e39c 34bb ca5a e7ba
00000290: 9a41 2dbb ad2f 363b 282c 133b 66c2 4fba
000002a0: f362 e1ba ec21 3e3b 6190 323b 58b1 153b
000002b0: 8eae 803a 424a 3db9 46e5 c839 4ccb bbba
000002c0: 2f02 b439 5eee 843a f466 923a 9786 a53a
000002d0: 99e4 2b3b 8a33 d2ba 06ed acba d4cd a4ba
000002e0: 195e 4dbb 9f0a 3ebb f50e 453b 6bd9 32bb
000002f0: 10c9 edb9 7cc8 fd39 9597 52ba fa28 b13a
00000300: 2039 bb3a 9567 16bb 0281 15bb e654 ec39
00000310: c730 343b 8f0a 943a f948 883a eca6 a6b9
00000320: 8e63 30bb eaf7 4dbb 6420 33bb f49d 4b3a
00000330: 9637 b63a c663 033b 9fe9 1dbb 72b8 1d3b
00000340: 90be dc3a ffee 63b9 2b68 ab3a 646f e8b9
00000350: 32c1 19bb 8653 2c3b d71a 45bb 668f 263b
00000360: 5a85 203b c5f5 4a3b 6231 e7b9 6e69 06bb
00000370: 0b29 88ba e985 12ba 581e 2b3b 445b 0c3a
00000380: 9445 23ba e849 bcba e1f7 02ba 8bf0 d23a
00000390: bff1 bcb9 4983 213a 9693 3ebb 380c a2b9
000003a0: 9ba3 01bb 86c5 363a 89f9 d639 1347 38bb
000003b0: 8602 213b 85d1 aa39 ebc1 08bb b820 08bb
000003c0: 5088 a8ba 6ba5 9eb9 5bec c8b9 a45a 1e3b
000003d0: 15c1 953a 774c eeba 668a eeba dd98 4dbb
000003e0: adaa 443b 6eae 453b c6b5 473b 0168 d93a
000003f0: 15b3 aa39 cc8b 75ba ddfb 223b 5bee 6f3a
