w1.npy (npy, 802944 bytes, 1 tensors)

array f8 [784, 128]
00000000: 5560 dcc1 0092 4d3f deb2 455a 0798 4f3f
00000010: c93d f758 fc33 2abf 340a f125 ef1c 693f
00000020: 4912 63df 2067 623f 7159 da1f 67a4 5cbf
00000030: e636 bf78 e58a 653f a989 504b d50f 68bf
00000040: 5fab 4808 c058 69bf 54d9 caf9 35c7 65bf
00000050: 2eff 2c48 9cb6 603f ffd2 6f8f 5a30 3f3f
00000060: 9cc8 219a c2a9 673f d625 cd69 ce2f 693f
00000070: 15a2 89f0 c3b0 52bf 6388 d210 2152 0ebf
00000080: 149e 8900 5315 4c3f d07f b312 9584 5e3f
00000090: 4a8d 85a9 db0a 4e3f c667 4874 1547 613f
000000a0: 3022 3318 3ec2 643f 995e 834d 1f5d 3f3f
000000b0: cb55 969b 4374 633f b03b 8b3c 8cb2 4bbf
000000c0: 3f4f 9961 f7a7 56bf 8b32 a059 e983 413f
000000d0: fb23 7bf6 25bd 663f 96e2 c555 4739 503f
000000e0: e66c fe89 7841 593f e6cb 3c64 74c5 5c3f
000000f0: 2cac 52e6 59d7 4ebf 2f46 290e 796f 48bf
00000100: fe86 82f1 28c6 5e3f 44d7 54e8 5ac3 433f
00000110: 0ddd 04f4 7f8a 503f 64c3 c224 fa82 653f
00000120: 4df2 374b 7b4d 59bf 870b 522b 69bc 43bf
00000130: 0e40 bcb6 d5c9 5e3f 3558 2c40 635f 533f
00000140: a376 54ff c9b8 63bf f5b1 701e e86a 623f
00000150: 13a7 598f 6533 40bf bdde 25ba 7dce 64bf
00000160: 8eec f517 db33 633f 3f65 0528 9e73 583f
00000170: 4ca8 6342 cb7c 64bf 58e7 af69 32c1 5f3f
00000180: 9c49 ee76 eaa4 2bbf 06f6 36d2 e9bc 55bf
00000190: 5c54 4ece fb89 59bf d9e9 e18a 563b 273f
000001a0: c442 0b1b dd6e 573f ca1f 725a 1641 62bf
000001b0: caea c588 e7df 633f d84d ec38 a2e1 213f
000001c0: 837a 407e a652 5c3f 66e9 ae63 1cc2 69bf
000001d0: 2d4e 99d1 f769 653f 5b03 1003 daf1 5d3f
000001e0: 4022 167c 9d87 5a3f bca8 bb10 5a96 05bf
000001f0: e1d1 0b11 d716 3fbf fe5b 2bc4 09ff 62bf
00000200: 88e1 42af f80d 613f ee60 0ac8 e52a 49bf
00000210: 406f 7e54 ef3d 663f ad9b 3740 8a1c 69bf
00000220: 0167 ac04 a0f0 66bf 4417 c77d d4d4 553f
00000230: 032c e4d1 282f 513f 099e 1fe0 f962 5d3f
00000240: f05b 6c46 aa90 4bbf 2c9a 4fe4 e630 5a3f
00000250: bb69 88b5 dbb4 65bf 8270 8f36 e0cc 693f
00000260: 1fa5 a64f 70b2 58bf 2d1d 0964 8109 513f
00000270: bbc7 70bb 2327 50bf a9fb 9dcf 0719 42bf
00000280: 2069 c4dd 8d1f 67bf 85e6 3ee7 bdd1 273f
00000290: 4750 e773 1314 65bf dc69 f7e9 f3c7 5cbf
000002a0: 75e6 b382 4b40 673f 916c e59c b2a6 4e3f
000002b0: ea1b 9e74 1968 58bf 7290 63b0 8660 543f
000002c0: 9dee ed2f 5024 313f 9065 a114 8b46 683f
000002d0: ff36 6435 6da2 64bf d9a6 8ad3 fe0a 183f
000002e0: a8c3 e741 115b 63bf e3f6 5e4f 25e8 66bf
000002f0: 3f79 a59d fd03 21bf 8b8b b93e a151 5c3f
00000300: 1370 9e50 31f2 5fbf 797d 0350 ac55 64bf
00000310: 3017 8248 4f84 5f3f 0640 fe9c 25e2 63bf
00000320: 8576 b43b 43d4 69bf 8697 d0a6 73eb 663f
00000330: 1cba d8f3 7fc8 693f e516 398f 4e57 473f
00000340: 84cd 28b8 652f 68bf db56 dcc8 21ce 5fbf
00000350: 0828 55cb 8a32 473f e960 d049 0fae 61bf
00000360: e7ab 4281 8907 65bf 1ff1 10e7 7f61 62bf
00000370: 923c dcd9 ec08 19bf d9c2 77de cc4c 48bf
00000380: 05da 68c5 cecb 5e3f a36f 745f 98e8 5f3f
00000390: 1112 4f6c 4c0e 163f 44bf 8722 d61b 5f3f
000003a0: ef36 732e c34c 683f 7af6 2536 515e 673f
000003b0: e8ec 931d 7531 5c3f 4f95 7100 aa03 63bf
000003c0: 209b a463 818a 44bf 33c3 8ea1 6242 55bf
000003d0: 7333 386c 07c5 403f d0dc 75a2 ef8c 523f
000003e0: dcbe 79ec 5212 62bf 37b6 a26c 0d40 693f
000003f0: 4a48 0037 57b7 66bf ef16 e683 fc2a 603f
00000400: f548 5203 dcf5 583f 777e 372f 2a25 4dbf
00000410: d178 9f28 2244 64bf 94d0 b7e4 e486 663f
00000420: 5207 d423 be54 60bf 9c1a 8f3c edbd 52bf
00000430: 749a 14e5 6912 323f e9a5 b097 7371 5dbf
00000440: cccd 2268 77b1 29bf 9783 fec9 8eb5 683f
00000450: 5b10 195d 2626 543f 3f29 d6ac 12c1 143f
00000460: 819d 5086 c1de 513f 54cf 88c0 0340 4a3f
00000470: 411c 0f70 b9b8 5d3f f344 61e0 3274 673f
00000480: 7673 dc0e 4827 683f 53ac 8ff9 4906 63bf
00000490: 2f46 32af 5343 1cbf d532 6e24 a72a 563f
000004a0: 0591 fa5d a003 5a3f 993a e65e c990 473f
000004b0: a0a1 fd0b fa7f 68bf 5dc3 9616 6362 53bf
000004c0: 08fd bb08 3d23 13bf 3eae 610a 1452 68bf
000004d0: e6cc 65dc 852b 42bf 89ba 5f6f 6560 fe3e
000004e0: 3b08 6587 d7d6 3f3f df00 cd87 8ea7 63bf
000004f0: d162 b361 68bc 12bf a983 8a2a caa2 5a3f
00000500: 97af c7a2 c421 4dbf acd4 0a77 6e37 68bf
00000510: adba fa51 5c5f 3b3f 4602 64b3 78bb 593f
00000520: 19b4 3188 188c 69bf 0756 6491 7aed 62bf
00000530: 0919 a8d1 659c 5c3f 703d 4bdc edc5 65bf
00000540: 62b0 da0b 03c2 633f ebd2 3565 4114 53bf
00000550: f78f aca8 6fb2 4dbf fd15 679c b6e6 673f
00000560: b336 93a5 6119 663f 19b1 0dcd 7ddb 533f
00000570: 2087 4ce8 07c8 65bf ea8c 2ecb aaab 503f
00000580: 4f1d 1148 5bed 483f a251 b760 2b3d 623f
00000590: c5fd cfa0 69dd 61bf 05ad e28b 35c7 633f
000005a0: 9430 8d0d aa52 603f 1987 c23d d18a 363f
000005b0: 8518 67c7 f634 61bf 5f25 6842 4322 5cbf
000005c0: 6bd7 4658 ad66 41bf b81b 2eb0 9613 553f
000005d0: 5ecb 7466 e847 53bf 36bc 797d 4d49 42bf
000005e0: 5dd6 c2c4 be7f 523f d064 b871 c217 62bf
000005f0: e581 ed23 2372 323f b839 1457 100b 69bf
00000600: 1145 0748 445c 66bf 102e b877 618c 5b3f
00000610: cdb8 16f6 7fa4 4f3f fe4d cbe3 b760 3f3f
00000620: 431c e328 780e 633f d5c1 342f 3451 5abf
00000630: 4d48 6674 ace7 5fbf 39bb 1d59 8059 633f
00000640: 7d08 1345 985c 62bf 3505 2715 b381 683f
00000650: 5276 a652 685e 5b3f d57a fc69 7499 443f
00000660: 431d afd3 dfde 4dbf dad7 427b c63a 67bf
00000670: 2fb0 be9b 07d7 3b3f d310 2aed 7a55 433f
00000680: b8d5 f91e 7be2 33bf 5acc cb1b 871f 54bf
00000690: fb1f 8971 9a4e 653f a122 d31d df6c 4c3f
000006a0: 2204 285c 6a68 36bf f1f9 b9a2 32a3 293f
000006b0: a9d4 44f6 bd65 393f e611 22d8 78fc 5abf
000006c0: b3e7 c68f f19c 43bf b03c f865 2fa3 62bf
000006d0: 449e b7af 9991 1bbf 8262 f4ec d387 43bf
000006e0: 3e9a 55b7 1771 64bf 02ce 2ecd 8c98 573f
000006f0: d49a 74f0 0cbc 5b3f ec90 2c73 502b 4f3f
00000700: 07fa bd4f 0280 e73e 0d06 ce8c 7e72 61bf
00000710: 2bce 5d67 9b69 653f 63e4 3779 7f14 54bf
00000720: 2487 5fe5 e4c6 513f b37b 5dc4 0720 4bbf
00000730: cf32 76ef e031 57bf 6d63 543a 0e80 50bf
00000740: cd1d b494 25af 1bbf a571 14f4 9f87 603f
00000750: acb5 f6e2 c933 66bf 872a 199b 07d0 653f
00000760: ff9a 7cd5 3b99 39bf bf87 dcf9 b2d1 603f
00000770: 2cd9 09a1 d2f9 66bf 8314 dabe bc32 64bf
00000780: 7d11 57e1 b073 3a3f 6044 c792 ead1 60bf
00000790: fc40 780d 719b 58bf 5dcf e208 b24b 64bf
000007a0: 3b9d 9ce5 5492 623f 8d40 452f 6b60 623f
000007b0: f67d 09a6 43f0 4e3f cf6c c558 fe76 143f
000007c0: a41b 5139 d929 52bf cdb4 dab3 e277 643f
000007d0: f994 0b62 cf77 5b3f b2ac a77b 587e 50bf
000007e0: 5c25 ff52 6a6b 38bf 5ec2 5f1e 4b3d 643f
000007f0: ec09 8372 1707 61bf 744e 895c 2a01 45bf
0.0009024146745302367 0.0009641681577200153 -0.0001999135533723286 0.00306555470118155 0.0022464410822940245 -0.001748181064078116 0.0026297075146207603 -0.0029372373487756742
-0.0030940771705635773 -0.0026584676946540906 0.002040200460584083 0.00047590456909966933 0.00288856514185294 0.003074553633642489 -0.0011407769653947232 -5.783236893221256e-05
0.000857034233445244 0.0018626647750394805 0.0009168217248255808 0.002109090712349523 0.002534028318766944 0.00047857298114937493 0.0023747749771227725 -0.0008452591656239374
-0.001382819731948495 0.0005345239071644232 0.00277573980915635 0.0009902187949519018 0.0015414883746192542 0.0017560612331635138 -0.000941199203812975 -0.0007457104769150231
0.0018782996976728912 0.0006031221279616324 0.001009583429618935 0.0026259313218236924 -0.001544351963160956 -0.0006022943040452235 0.0018791758583951465 0.001182410168160353
-0.002407450224054157 0.00224824271892587 -0.0004944082163096129 -0.002539868889637946 0.0023440627261926477 0.0014924091811592958 -0.002500912657628118 0.0019381515801328488
-0.00021090852848411063 -0.0013267787370375718 -0.0015587767640899064 0.0001772444861137385 0.0014302405581256153 -0.0022283016765562757 0.0024261018899641483 0.00013642411473622942
0.0017286897573353395 -0.0031443171005466784 0.0026140060624955303 0.001827681448276239 0.0016192472397468377 -4.1174529625668974e-05 -0.0004743838372143466 -0.002318877291468179
0.002081857406747104 -0.0007680532435925516 0.002715079728614983 -0.003065366765202046 -0.002800285850196427 0.0013324809179819522 0.0010488413459508468 0.0017936172666795944
-0.000841220037588351 0.0015985731890794204 -0.002649716491089663 0.0031494502222653717 -0.0015073868549769288 0.0010398639280014374 -0.0009858941027798124 -0.0005523002757711243
-0.0028226633859392974 0.00018172686725197534 -0.002573049539231351 -0.001756656834791862 0.002838275414998754 0.0009353992589170736 -0.001489662989543334 0.0012437167475179115
0.0002615638513174619 0.002963325158856285 -0.0025188572864242027 9.171657883180351e-05 -0.0023627602633884033 -0.0027962425910733487 -0.00012981863876410958 0.00172844645103318
-0.0019498330679885753 -0.002482258365588738 0.0019236349344579733 -0.002427171195400038 -0.0031529725216746262 0.002797819025107398 0.003147363574292029 0.0007123120871674575
-0.0029522883135315054 -0.001941235535416855 0.0007079293924701089 -0.002158193454771963 -0.0025670705454863166 -0.0022437570665073815 -9.550042747384833e-05 -0.0007415771805750717
0.0018796462296798444 0.001947544862395547 8.413640450927901e-05 0.001898726574037072 0.0029662906777961832 0.0028525911486088603 0.0017207759577207386 -0.0023210831018782084
-0.0006268626960136171 -0.0012975657648263805 0.0005117689365207026 0.0011322345906970462 -0.0022060031513361066 0.003082300395439909 -0.0027729705252648494 0.0019736225069121242
0.0015234612049295747 -0.0008894401529992564 -0.002473894802263656 0.002749869401435909 -0.001993533484552148 -0.001143914867712737 0.00027575574229602513 -0.0017970684846296775
-0.0001960237751227181 0.0030162609909471605 0.001229798759951903 7.91709564592945e-05 0.0010907068147022194 0.00080108817298317 0.001814061252149349 0.0028630250626880903
0.002948418367749668 -0.002322334749341995 -0.00010781477230838923 0.0013529426812254792 0.001587778671742036 0.00071916420510994 -0.002990711567623275 -0.0011831252726148469
-7.300434134193204e-05 -0.0029688254754114676 -0.0005545047395528995 2.8969333435153433e-05 0.0004858280366485422 -0.0023992332266119377 -7.147204489700165e-05 0.001625726154238042
-0.0008890352378876251 -0.002956119300814372 0.0004176712409202182 0.0015705755918703642 -0.003118560709074913 -0.0023105043320679228 0.001746272499646264 -0.0026578565324155076
0.0024118480203779028 -0.0011644972445001244 -0.0009062810143842793 0.002917629873283144 0.002697649685251624 0.0012119987988752966 -0.002658858722853888 0.0010174911410352713
0.000760716982889523 0.0022264334890939744 -0.002180773072268246 0.002414326269975955 0.0019925423952483288 0.0003439675181288057 -0.002100450506278997 -0.001717153246888557
-0.0005310388956363104 0.00128640857357863 -0.0011768121274371083 -0.0005580547685449858 0.001129089639147727 -0.00220859506022162 0.00028146131437803277 -0.0030570334571457768
-0.0027295430775004033 0.0016814185936507887 0.0009656548319776581 0.0004787873220213067 0.0023262354726259218 -0.0016062745679158348 -0.001947325146464357 0.002362013511564423
-0.002241418268199401 0.00299153306079405 0.001670457723413139 0.0006286447932984616 -0.0009115784554233692 -0.0028356434432579127 0.000424804074777854 0.0005900240160632515
-0.0003034163082483404 -0.0012282199306212966 0.0026009575342733605 0.000867470687489453 -0.0003419170062955464 0.00019559853659596686 0.00038753402465669745 -0.0016471080894301326
-0.0005985431194439533 -0.002275078368036164 -0.00010516644027058162 -0.0005960259240139351 -0.0024953330236485985 0.0014401793493846742 0.0016927839622639567 0.0009512083837291108
1.1205690036095358e-05 -0.0021297904663135693 0.0026138339261992014 -0.001225590215538718 0.0010850177109138015 -0.0008277929234557973 -0.0014157005915393266 -0.0010070933288430465
-0.00010560671687553161 0.0020177959528508587 -0.0027102416131216858 0.002662672858410989 -0.0003906031683861693 0.002053117334882309 -0.002804671654582999 -0.0024655996738283683
0.0004036242329130897 -0.002053220892982696 -0.0015019039182143082 -0.0024775006523557867 0.002267041982935728 0.00224324163915674 0.0009441690745681231 7.806708726347814e-05
-0.0011086102797592612 0.0024985721382423166 0.0016765141701225435 -0.0010066856472075556 -0.0003726133900242201 0.002470633236036953 -0.0020785768466293677 -0.0006410080760112639
