w2.npy (npy, 608 bytes, 1 tensors)

array f8 [30, 2]
1.0638373954183753 -0.867095061808251 1.078487185077635 -0.8775602728977049 1.0320394435498879 -0.8346565529496632 0.9282646697068131 -1.0201973016671468
0.8784140511873575 -0.94193795126911 0.9930375950974136 -1.0696856237117653 0.885741093707474 -1.0240592300835998 1.0478133263168643 -1.0383325368089542
0.9017945496029893 -1.0880858140023826 1.0319844863774685 -0.8268190047452144 0.8767154167431936 -0.8717026990090819 0.968178605383078 -0.8353523600340842
1.0653062222985763 -0.8960385414118532 1.0657312273220687 -1.0036776704102226 0.8448903831590744 -0.844776040830748 1.0473557718649742 -1.1171629662874045
0.9692241388659931 -0.8226721178980911 1.1046953171323755 -1.061199700729923 1.0762833849961695 -0.8570209138734226 0.988037732595645 -0.9726514227809703
0.8363933166198719 -0.9537893637765539 0.847587554183893 -0.8930230791382935 1.04482802641155 -1.0382750163583525 0.8788570561382025 -0.9293508075307467
0.8777793931401145 -0.8687105858557915 0.998722742160742 -0.9999350591059288 0.8688987934798335 -1.0256812647222502 0.9875860910558595 -1.075921042761537
1.0253382851096149 -1.058120691259282 1.0584765890919032 -1.0702354105891163
00000000: 0257 595c 7a05 f13f 49aa 9f24 3ebf ebbf
00000010: 4404 51c7 7b41 f13f cda9 0b48 f914 ecbf
00000020: 31a9 a3ca 3b83 f03f dcf2 c9a8 81b5 eabf
00000030: 4089 cd1b 58b4 ed3f a40b e267 ba52 f0bf
00000040: 4e4a c6c8 f71b ec3f 78fc f10e 5b24 eebf
00000050: 4b8a 54c7 f6c6 ef3f 8b7e 2dac 6e1d f1bf
00000060: c74c c6b4 fd57 ec3f 1904 66ee 8b62 f0bf
00000070: a680 0de8 d7c3 f03f 8c79 ff93 029d f0bf
00000080: 3e30 483e 80db ec3f bd1b a6ab cc68 f1bf
00000090: 8487 2f2a 0283 f03f 60f1 2221 4d75 eabf
000000a0: f0f3 597d 0d0e ec3f aa86 020f fde4 ebbf
000000b0: a9d4 d9b2 51fb ee3f 2c73 5fdf 34bb eabf
000000c0: 8bf6 8f89 7e0b f13f f238 ea04 59ac ecbf
000000d0: a2c9 fa2f 3c0d f13f ae32 2251 100f f0bf
000000e0: b6f0 8b8e 5709 eb3f 5fff 79c3 6708 ebbf
000000f0: 8cfd 3620 f8c1 f03f a91b 4846 e6df f1bf
00000100: e18a 5d57 e203 ef3f e881 367a 5453 eabf
00000110: e20b 32ff d4ac f13f 638f 9289 acfa f0bf
00000120: 6d96 3ced 7438 f13f 5861 a21f b76c ebbf
00000130: 11cb 964e 019e ef3f 8111 68e0 f51f efbf
00000140: d935 afea bbc3 ea3f 9d2c 9645 7185 eebf
00000150: 25ed 36ef 6f1f eb3f 2f1c ef22 a593 ecbf
00000160: fb1b b697 9db7 f03f 3435 7843 c69c f0bf
00000170: 081e 3fd5 981f ec3f 4962 9be7 3dbd edbf
00000180: f076 54cf c416 ec3f 6811 7e24 7acc ebbf
00000190: 2b42 6b65 89f5 ef3f 387b 1fcf 77ff efbf
000001a0: a7f3 b0d7 04ce eb3f b9a1 01c2 3069 f0bf
000001b0: 7b38 6225 4e9a ef3f 06d3 bbfb f836 f1bf
000001c0: cd1e 1e1e c967 f03f 5adf 42f6 0fee f0bf
000001d0: a1b3 db25 85ef f03f ae05 782a af1f f1bf
