w2.npy (npy, 10368 bytes, 1 tensors)

array f8 [128, 10]
00000000: 4c31 5fb7 3408 b43f 6d61 f664 ebf1 b33f
00000010: 8122 a077 18ea 9cbf 70cd 68b6 4d8a b73f
00000020: f3e0 36af 4469 b23f ce15 6e21 899d b13f
00000030: 322b 6829 d28b b63f 7832 9e98 eece 953f
00000040: a6c7 ba1a a19f b83f 8d05 ab9f a5aa b43f
00000050: 2da2 6dd4 2d91 b73f dcfd 0729 5e54 a0bf
00000060: 8438 2641 3484 65bf a607 2065 83ff 99bf
00000070: c9cc eaa7 392a b93f c29d 0a66 a063 9a3f
00000080: c221 ae4b 193b b83f 0f1d c48a c2f5 b53f
00000090: e50c 8e68 959d 9f3f 9a0b 2c20 9781 b23f
000000a0: 8429 89f2 f8c3 bb3f 535c 01c7 a587 bb3f
000000b0: 988d d642 dd95 ba3f 2609 a20f 11f6 70bf
000000c0: 78bc 3cf5 3bcc b93f 2f95 3644 5da1 98bf
000000d0: 24e6 3176 7e2b b93f 3120 c693 217a 8cbf
000000e0: e6c8 bc57 05fc b23f ba76 40dd d519 b73f
000000f0: a6de ba5a 2f49 b53f 62ea 75ea 0e81 b93f
00000100: 4314 a9ac a4c3 87bf 8c47 6608 cd11 bb3f
00000110: be7f 4f84 5823 b53f babd 6f26 6fd6 b83f
00000120: 1ea5 4f21 2c98 9bbf d300 f4a3 6bf9 b93f
00000130: b47d 350e 6331 ba3f 725b 3978 7f45 ae3f
00000140: 676b 0b8c 9aa1 993f 9d4c 4bab 35ad a3bf
00000150: 3007 5a4a 81c8 b03f d628 af96 b71f b33f
00000160: db44 0d63 4574 91bf 8350 5fa2 26a6 b73f
00000170: 9a19 8c65 6b48 ba3f 5432 ea60 a065 b83f
00000180: 869f 8228 2525 b13f baff ee44 7dba b83f
00000190: 750f bc75 0363 bd3f 186f 35b2 c0f4 95bf
000001a0: 7752 eea9 4d2f b93f 65a2 5589 cfa5 95bf
000001b0: 177d ee91 3fbb b93f 8011 d0f5 f0e3 9f3f
000001c0: b2b4 f124 2dde b33f 9cce d0cf dd02 bc3f
000001d0: a7fa 5201 f19a 92bf 3673 936c 34bc b83f
000001e0: 34f6 216f 3c34 b13f c444 a45e b10c b43f
000001f0: e483 b6a6 f091 a93f 0340 fe28 7802 9bbf
00000200: 33a5 df93 0a35 b73f 1fbb a50d 73cd a33f
00000210: 151e 6f1a 8737 b93f 767f 54ee e625 a1bf
00000220: 3959 6595 4e6e b03f ddf9 2ce0 00ae 9fbf
00000230: da25 899f be71 693f 5f07 6646 b799 7abf
00000240: 9997 3ddb 6981 8abf 79ad 1927 26c7 b83f
00000250: 41e7 373b 04cb b93f 5d0d 69eb 40b3 b53f
00000260: 3af7 054b d5d2 bb3f 1b85 00f2 be9e 97bf
00000270: ce35 59f9 7c39 b63f 5664 c3b1 9e62 b93f
00000280: f88a f3eb 9ac9 99bf 31b7 3254 7495 be3f
00000290: f055 2bed 74d9 8bbf 2353 095a cf67 9cbf
000002a0: 5f1b 78ce a6aa bd3f cef7 dddd 1f3a a73f
000002b0: 0d35 7a96 0661 7fbf c9af 538f 6ff2 88bf
000002c0: 9230 1fe4 f959 96bf bac5 8a50 bc64 8fbf
000002d0: 874e 991d 3cb3 78bf 6ec5 178d 4ae9 bc3f
000002e0: e225 d8ab 38b1 2e3f 1fa0 936c 7de8 b63f
000002f0: 6ca1 ebeb 089d b43f 4fc8 5359 1725 98bf
00000300: fb33 5d87 d287 97bf 9c00 f117 1ea4 bb3f
00000310: 041d b3f0 ed67 9cbf d438 ab52 f951 bb3f
00000320: f15f 2e10 386b a1bf 118c 193d e548 b53f
00000330: f0cb 06ca 29eb a73f 89e7 d128 7552 b73f
00000340: f23a e8be 62f5 b23f ae8f 94ef 4a16 9abf
00000350: 6a11 1aa6 afd9 91bf 8065 f996 b9f3 b93f
00000360: 00d5 c79d 652f b43f 0aa1 5178 f46e b93f
00000370: cce4 913b 8641 a1bf 20bb a0f8 3669 bd3f
00000380: 9818 18e2 482a 8fbf 25dd 92bb b4c1 b63f
00000390: dc66 9607 4a91 aa3f 098b 619f f6f4 b13f
000003a0: db5b 1d62 b431 ba3f 3c47 ab06 a573 bc3f
000003b0: a759 c322 634a a63f e044 45e9 47c3 9a3f
000003c0: 2207 c97e 03cc b43f 9b8d 2f40 437d a0bf
000003d0: 4bab b7bf f612 90bf 46fd b67d c63b a0bf
000003e0: afb7 00ef 29c5 b03f 3730 1b4f bef9 b63f
000003f0: 93c3 a7be 1b4b a0bf 3ca5 3e9d 0a4e aa3f
00000400: 0e4e 0013 0ec7 b93f 182f 943d 377a b33f
00000410: ff03 414e 5760 ba3f a8a6 9b6d 1062 a6bf
00000420: ce14 39fd 866b bb3f 8a3a 1a9d ff17 a93f
00000430: 8485 643c 2399 b53f 27d9 6825 fe86 a83f
00000440: 67f1 92a3 399d b63f b419 72aa e510 b33f
00000450: 2893 3a1f 0a5e a03f 6ef7 0cd1 08e7 b43f
00000460: cb54 3d17 d250 b23f 1c26 5429 abcd a0bf
00000470: 8660 5d0d bd28 b63f 5c3f 3b0a f404 b03f
00000480: fac8 d58a b068 97bf 9732 eef0 0404 b93f
00000490: 3344 9da6 f958 b53f c428 5b5b a227 b63f
000004a0: 70f8 a90a e350 94bf 9b81 3c33 bae6 90bf
000004b0: 1163 a3c8 66ba 83bf a434 1947 9905 bd3f
000004c0: 0362 8cae 1f1c 9ebf 019b 538f 8d86 bc3f
000004d0: 8d95 92b3 b612 83bf ede4 e48c aba4 4abf
000004e0: bcd2 4d49 6a71 9cbf 5f62 1fdc af86 b53f
000004f0: 7f03 5c7b fb6a 633f a65f e16d e90e b23f
00000500: 0684 6493 30e0 a3bf b2ee 544d a5e5 8d3f
00000510: b6c6 b7b6 3507 82bf bf11 dfed f40f bc3f
00000520: 9a9f 8936 5edb b73f f67b e301 8055 923f
00000530: 2b69 c04b bb7a 89bf a6fb 26ca c10f b63f
00000540: 802f 13b2 354a b53f a9b6 dc39 f68f ac3f
00000550: 2c7c 6fc8 2a6b 97bf c506 d319 f9d9 bb3f
00000560: 73f7 5fa5 0b4c b43f 1e19 c581 c0a4 7dbf
00000570: 6efb a020 ee4e b73f 843c 75d8 73a5 a43f
00000580: 89a9 dd33 8895 ba3f 1974 871e e58f a3bf
00000590: 0e0d e00b b707 8b3f b800 a75b 946b 56bf
000005a0: 58a1 a230 2c42 993f 144f 99f4 8d5a 8cbf
000005b0: cdb1 029b 6a5d 9fbf c8aa 5dea 2862 b73f
000005c0: 1ece f19a 2feb 873f 4a99 1b67 fd9e b13f
000005d0: 106c 4df7 b557 bb3f ef43 7d71 1580 b83f
000005e0: 3837 3639 8602 b13f 86b8 41c7 742c ba3f
000005f0: fdf7 33f7 6ebf b03f dad8 24ff 7ded bd3f
00000600: 685e 22d7 baf4 bc3f ce51 6460 944c b83f
00000610: 2d56 b60f 1eb9 9ebf 8e64 9375 fac6 a13f
00000620: b6d6 34a9 c70a ba3f 5639 4519 bc63 b93f
00000630: c6ca 67c9 1aa8 b43f ce66 a423 6499 ba3f
00000640: d0a5 369e 3adc a0bf 7d06 e9ec a6c1 a2bf
00000650: d612 afcf 82db b23f a19d a860 42bf 573f
00000660: 490c 33d5 9fe3 b93f ea74 d890 6c3f 7a3f
00000670: 215d 0879 d9bc bc3f 7f8b 4b20 b31d bc3f
00000680: b4f9 1653 cea8 92bf 7dba eeca 0fd2 b33f
00000690: d7ba 97ae 1b21 93bf 1028 2245 d5f9 bc3f
000006a0: 46e9 d198 47bb ab3f 6ab7 9fa7 82b5 b33f
000006b0: a0cf 572d 348d 9bbf 2b3b 12f4 d04c b63f
000006c0: 5164 4bae bb0a bb3f 00d0 ffac 5eac 83bf
000006d0: e7e9 0d30 9867 823f 2dec 8b6d 89ea a63f
000006e0: 5a5f 17c5 5c89 bc3f 6c29 424d ae10 a1bf
000006f0: 124f 8c7e 9b83 613f 79a7 4571 49bb ba3f
00000700: 1f7c a45e da78 9cbf b775 296f 3cbe a23f
00000710: 3d4d 4de8 1551 b33f 0990 918e 24e8 b83f
00000720: c8b3 c2fa 405a b53f fac7 8ce7 b4b3 a03f
00000730: 9b6c c551 5416 ba3f 39db 2ff2 18bd 9abf
00000740: 76c6 4018 56fa bb3f 7281 f1a6 a796 89bf
00000750: 3c8b 73c7 924c b33f 1f8a 0ad1 0b43 743f
00000760: f4cd c5c8 a164 b53f 6c66 b988 235b b33f
00000770: 4665 bae7 5bc1 b93f 8cae 7b9f 5ce1 b53f
00000780: 0069 4f73 f189 ab3f 44f3 76ce c6b2 bd3f
00000790: 3b44 dfd1 57bf 87bf 1517 5604 4391 b63f
000007a0: 88ab bf0e 15f4 b43f f98d f0e5 1371 b73f
000007b0: c5d8 f3f9 f545 a3bf ee94 eba8 5962 b53f
000007c0: fe66 b575 f613 b43f 97bb cdc9 1f82 b13f
000007d0: 7481 b0fd dd84 bb3f 9769 06c5 ac22 7f3f
000007e0: 44d1 d100 368d 9dbf dd43 ab61 ef64 88bf
000007f0: a1c8 cef6 cc3c b83f c781 4a77 797c b83f
0.07825021244861324 0.0779101487627309 -0.028236753751146985 0.09195409491876716 0.07191876676268176 0.06881005350267985 0.08807099829588763 0.02129719549661721
0.09618575003221838 0.0807288660826286 0.09205900608288493 -0.031893675335591815 -0.002626516398954117 -0.025388768241107272 0.09830055570164399 0.025770670154683158
0.09465177629147717 0.08578124893039195 0.030874571329616258 0.07228989158106316 0.10845905228885583 0.10753856762436102 0.10384924775876525 -0.004140917439260405
0.1007726167415387 -0.024053056038288275 0.09831991563432801 -0.01390482170315019 0.07415803329493861 0.09023796703010137 0.08314796414458189 0.09962552284370355
-0.011603628653697245 0.10574037032190925 0.08257058363187661 0.09702200592413748 -0.026947679074429513 0.10146210434686802 0.10231608483217408 0.059123977113521145
0.02503053169025851 -0.038430859718254974 0.06555946412302371 0.0747027151948346 -0.01704510132851032 0.09237901176612877 0.10266753415280619 0.09530069700321891
0.06697303999919599 0.09659560139607395 0.11479207634334705 -0.021441470028874837 0.0983780422087167 -0.021140330083115794 0.10051343262465583 0.03114296436616959
0.07760889198262325 0.10941873859047252 -0.018169179635828894 0.09662177706509287 0.06720330918502598 0.07831867752635718 0.04994155917234602 -0.026376607419990716
0.0906530962962691 0.038676829734745725 0.0985035361801397 -0.03349229487707721 0.06418315074310933 -0.03093720787296116 0.0031059954747305442 -0.006494251172968506
-0.01294214916533658 0.09678877310368773 0.10075403638611836 0.0847664427501988 0.10868580896018623 -0.023066504974967744 0.0868147000084811 0.09916107025073137
-0.025183125163390024 0.11946799331300607 -0.013598359573204072 -0.027739753599536187 0.11588518658400691 0.045365329583531996 -0.007660890325167158 -0.01218115955494871
-0.021827606724216304 -0.0153288566665165 -0.006030306650774648 0.11293474144601642 0.00023416344440389732 0.08948501492307102 0.0805211616494767 -0.02357899172506733
-0.022979058753936226 0.10797298511988845 -0.027740209404126595 0.10671957271844984 -0.034021141028631414 0.08314354650205781 0.046716028129047404 0.09110195395069644
0.07405678902453497 -0.02547566497118197 -0.017431969178248442 0.10137519775289228 0.07884821989121704 0.09934928834411863 -0.03370303609057998 0.11488669939056395
-0.015217370414586193 0.08889321879802432 0.05188971846219001 0.07014409438265203 0.10232093234422683 0.11113959706133597 0.04353627967218481 0.026135562527376588
0.0812380013021792 -0.03220567854421149 -0.015697341395859692 -0.031706049772305664 0.0655084808829247 0.08974828177741832 -0.03182303144774958 0.051376659102354755
0.10069358791252389 0.07608361485852944 0.10303254757401702 -0.04371692026127266 0.10710948641015536 0.049011218955560557 0.08436794495039207 0.04790491301212035
0.08833656543260347 0.0744765797736367 0.0319674647446731 0.08165030578399321 0.07154572551128806 -0.032819126887329214 0.08655911995208684 0.06257558107176692
-0.02286029670126142 0.09771757967082305 0.08338890378696888 0.08654226999638853 -0.01983980896556442 -0.016505154969424046 -0.009632876394265051 0.11336668000986322
-0.029404158619486875 0.11142811536010912 -0.009313037257309609 -0.0008130872391013656 -0.027776394580956362 0.08408640979849612 0.00237034909775996 0.07054003651262394
-0.038819807045236174 0.014598170683363196 -0.008802814138991404 0.1096184807530056 0.09319104033931894 0.017904281726142522 -0.01244112324643661 0.086177932599624
0.08316360089810182 0.055785841525318354 -0.022869747623072964 0.1087947547958051 0.07928536212417985 -0.007237197857028725 0.09104812904932455 0.04032480256375329
0.10384417787796542 -0.03820720670385231 0.013198308992292709 -0.0013684223946342344 0.02466649100156934 -0.013844594027581127 -0.03062979289158978 0.09134155008147637
0.011679050365478946 0.06883224265366042 0.10680711066872584 0.0957044031213312 0.06644476792118048 0.10224084725061475 0.06542104277829704 0.11690509299373578
0.11310928108502483 0.09491851189915865 -0.030003041943549903 0.03472120938540356 0.10172698861137061 0.0991780816741302 0.08069007317662188 0.10390306348963493
-0.032930213750045234 -0.03663369791003122 0.07366197176368003 0.0014494083612904623 0.10112952189506176 0.006408142171065759 0.11225661473178096 0.10982818163351558
-0.01822206861629079 0.07742403702170893 -0.01868098500375023 0.11318715036227922 0.05416320553281877 0.07698837845211207 -0.026905837314145864 0.08710962256212144
0.10563252454029849 -0.009606113104361214 0.008986653295996084 0.04475812399137911 0.11147098361777577 -0.033330389910662145 0.0021379506109812174 0.10442027106696895
-0.02780476763393491 0.03660763604123523 0.07545601769861761 0.09729221802405176 0.08340841409763222 0.032621052995082736 0.10190321918837457 -0.02611197450820699
0.10928857891192387 -0.01249438265057343 0.07538716668527184 0.004946752699341888 0.08356677200008972 0.07560941780084257 0.10060667426514155 0.08546999829894214
0.05378679783435025 0.11600916424408775 -0.01159542664746215 0.08815401893488357 0.08184939966274218 0.09156917918931375 -0.03764313388994504 0.0835319554713185
0.078429607140972 0.06839178730818528 0.10749614184942918 0.007601427918780954 -0.028858989524864556 -0.011911268394586056 0.0946777441556912 0.09564932978037809
